…
s.Input(shape=(img_size, img_size, 3))\n","    #input_tensor=keras.layers.Input(shape=(49, 49, 3))\n",")\n","\n","model_vgg.summary()"],"execution_count":0,"outputs":[{"output_type":"stream","text":["Model: \"vgg16\"\n","_________________________________________________________________\n","Layer (type)                 Output Shape              Param #   \n","=================================================================\n","input_1 (InputLayer)         [(None, 112, 112, 3)]     0         \n","_________________________________________________________________\n","block1_conv1 (Conv2D)        (None, 112, 112, 64)      1792      \n","_________________________________________________________________\n","block1_conv2 (Conv2D)        (None, 112, 112, 64)      36928     \n","_________________________________________________________________\n","block1_pool (MaxPooling2D)   (None, 56, 56, 64)        0         \n","_________________________________________________________________\n","block2_conv1 (Conv2D)        (None, 56, 56, 128)       73856     \n","_________________________________________________________________\n","block2_conv2 (Conv2D)        (None, 56, 56, 128)       147584    \n","_________________________________________________________________\n","block2_pool (MaxPooling2D)   (None, 28, 28, 128)       0         \n","_________________________________________________________________\n","block3_conv1 (Conv2D)        (None, 28, 28, 256)       295168    \n","_________________________________________________________________\n","block3_conv2 (Conv2D)        (None, 28, 28, 256)       590080    \n","_________________________________________________________________\n","block3_conv3 (Conv2D)        (None, 28, 28, 256)       590080    \n","_________________________________________________________________\n","block3_pool (MaxPooling2D)   (None, 14, 14, 256)       0         \n","_________________________________________________________________\n","block4_conv1 (Conv2D)        (None, 14, 14, 512)       1180160   \n","_________________________________________________________________\n","block4_conv2 (Conv2D)        (None, 14, 14, 512)       2359808   \n","_________________________________________________________________\n","block4_conv3 (Conv2D)        (None, 14, 14, 512)       2359808   \n","_________________________________________________________________\n","block4_pool (MaxPooling2D)   (None, 7, 7, 512)         0         \n","_________________________________________________________________\n","block5_conv1 (Conv2D)        (None, 7, 7, 512)         2359808   \n","_________________________________________________________________\n","block5_conv2 (Conv2D)        (None, 7, 7, 512)         2359808   \n","_________________________________________________________________\n","block5_conv3 (Conv2D)        (None, 7, 7, 512)         2359808   \n","_________________________________________________________________\n","block5_pool (MaxPooling2D)   (None, 3, 3, 512)         0         \n","=================================================================\n","Total params: 14,714,688\n","Trainable params: 14,714,688\n","Non-trainable params: 0\n","_________________________________________________________________\n"],"name":"stdout"}]},{"cell_type":"markdown","metadata":{"id":"SPC367A2QIuE","colab_type":"text"},"source":["##fine tuning"]},{"cell_type":"markdown","metadat
…
\n","ai_kea.add(Dense(1024, activation='relu'))\n","#model_fine.add(keras.layers.Dropout(0.5))\n","#model_fine.add(keras.layers.LeakyReLU(alpha=0.1))\n","ai_kea.add(BatchNormalization())   # 필히 사용할 것\n","ai_kea.add(Dense(10, activation='softmax'))\n","ai_kea.summary()"],"execution_count":0,"outputs":[{"output_type":"stream","text":["Model: \"sequential\"\n","_________________________________________________________________\n","Layer (type)                 Output Shape              Param #   \n","=================================================================\n","vgg16 (Model)                (None, 3, 3, 512)         14714688  \n","_________________________________________________________________\n","flatten (Flatten)            (None, 4608)              0         \n","_________________________________________________________________\n","dense (Dense)                (None, 1024)              4719616   \n","_________________________________________________________________\n","batch_normalization (BatchNo (None, 1024)              4096      \n","_________________________________________________________________\n","dense_1 (Dense)              (None, 10)                10250     \n","=================================================================\n","Total params: 19,448,650\n","Trainable params: 4,731,914\n","Non-trainable params: 14,716,736\n","_________________________________________________________________\n"],"name":"stdout"}]},{"cell_type":"markdown","metadata":{"id":"XRoI3F4VSzRZ","colab_type":"text"},"source":["#model compile & train"]},{"cell_type":"code"
…
