…
t(shape=(img_size, img_size, 3))\n","    #input_tensor=keras.layers.Input(shape=(49, 49, 3))\n",")\n","\n","model_imported.summary()"],"execution_count":46,"outputs":[{"output_type":"stream","text":["Model: \"vgg16\"\n","_________________________________________________________________\n","Layer (type)                 Output Shape              Param #   \n","=================================================================\n","input_2 (InputLayer)         [(None, 112, 112, 3)]     0         \n","_________________________________________________________________\n","block1_conv1 (Conv2D)        (None, 112, 112, 64)      1792      \n","_________________________________________________________________\n","block1_conv2 (Conv2D)        (None, 112, 112, 64)      36928     \n","_________________________________________________________________\n","block1_pool (MaxPooling2D)   (None, 56, 56, 64)        0         \n","_________________________________________________________________\n","block2_conv1 (Conv2D)        (None, 56, 56, 128)       73856     \n","_________________________________________________________________\n","block2_conv2 (Conv2D)        (None, 56, 56, 128)       147584    \n","_________________________________________________________________\n","block2_pool (MaxPooling2D)   (None, 28, 28, 128)       0         \n","_________________________________________________________________\n","block3_conv1 (Conv2D)        (None, 28, 28, 256)       295168    \n","_________________________________________________________________\n","block3_conv2 (Conv2D)        (None, 28, 28, 256)       590080    \n","_________________________________________________________________\n","block3_conv3 (Conv2D)        (None, 28, 28, 256)       590080    \n","_________________________________________________________________\n","block3_pool (MaxPooling2D)   (None, 14, 14, 256)       0         \n","_________________________________________________________________\n","block4_conv1 (Conv2D)        (None, 14, 14, 512)       1180160   \n","_________________________________________________________________\n","block4_conv2 (Conv2D)        (None, 14, 14, 512)       2359808   \n","_________________________________________________________________\n","block4_conv3 (Conv2D)        (None, 14, 14, 512)       2359808   \n","_________________________________________________________________\n","block4_pool (MaxPooling2D)   (None, 7, 7, 512)         0         \n","_________________________________________________________________\n","block5_conv1 (Conv2D)        (None, 7, 7, 512)         2359808   \n","_________________________________________________________________\n","block5_conv2 (Conv2D)        (None, 7, 7, 512)         2359808   \n","_________________________________________________________________\n","block5_conv3 (Conv2D)        (None, 7, 7, 512)         2359808   \n","_________________________________________________________________\n","block5_pool (MaxPooling2D)   (None, 3, 3, 512)         0         \n","=================================================================\n","Total params: 14,714,688\n","Trainable params: 14,714,688\n","Non-trainable params: 0\n","_________________________________________________________________\n"],"name":"stdout"}]},{"cell_type":"markdown","metadata":{"id":"SPC367A2QIuE","colab_type":"text"},"source":["##fine tuning"]},{"cell_type":"markdown","metadat
…
